…
wide on the bottom. The function of the dropout
layer (Hinton et al., 2012) is to mitigate overfit-
ting and make sure that our model learns signifi-
cant representations by randomly omitting a cer-
tain percentage of the neurons in the hidden layer
for each presentation of the samples during train-
ing. This encourages each neuron to depend less
on other neurons and to try to learn generaliza-
tions. Table 2 shows the layer configuration of the
model.

4 Experiments and Results

We test our system on various combination of the
features mentioned in subsection 3.1. We assume

Layer type Output Shape Param #
Dense1 (None, 12) 132
Dropout1 (None, 12) 0
Dense2 (None, 12) 156
Dense3 (None, 100) 1300
Dense4 (None, 200) 20200
Dense5 (None, 1) 201

Table 2: Neural Network Layout.

the baseline is 50% as this is what a random sys-
tem would generate given that the validation set
has an almost equal number of True’s and False’s.
Table 3 shows the system results on the dev set,
with the last row showing results on the test set
using our best model, “all features”. Surprisingly,
using the cosine distance between pairs of words
gives a low score (56.17%) which is slightly above
…
